…
[38;5;15m  [39m[38;5;197mPRECISE_BN[39m[38;5;15m:[39m
[38;5;15m    [39m[38;5;197mENABLED[39m[38;5;15m:[39m[38;5;15m [39m[38;5;141mfalse[39m
[38;5;15m    [39m[38;5;197mNUM_ITER[39m[38;5;15m:[39m[38;5;15m [39m[38;5;141m200[39m
[38;5;197mVERSION[39m[38;5;15m:[39m[38;5;15m [39m[38;5;141m2[39m
[38;5;197mVIS_PERIOD[39m[38;5;15m:[39m[38;5;15m [39m[38;5;141m0[39m

[07/26 14:59:46] detectron2 INFO: Full config saved to ./output/config.yaml
[07/26 14:59:46] d2.utils.env INFO: Using a generated random seed 46364842
[07/26 14:59:52] d2.engine.defaults INFO: Model:
PanopticDeepLab(
  (backbone): d2_xception_65(
    (conv1): Conv2d(3, 32, kernel_size=(3, 3), stride=(2, 2), padding=(1, 1), bias=False)
    (bn1): SyncBatchNorm(32, eps=1e-05, momentum=0.1, affine=True, track_running_stats=True)
    (relu): ReLU()
    (conv2): Conv2d(32, 64, kernel_size=(3, 3), stride=(1, 1), padding=(1, 1), bias=False)
    (bn2): SyncBatchNorm(64, eps=1e-05, momentum=0.1, affine=True, track_running_stats=True)
    (block1): XceptionBlock(
      (conv): Conv2d(64, 128, kernel_size=(1, 1), stride=(2, 2), bias=False)
      (bn): SyncBatchNorm(128, eps=1e-05, momentum=0.1, affine=True, track_running_stats=True)
      (sep_conv1): SeparableConv2d(
        (block): Sequential(
          (relu): ReLU()
          (depthwise): Conv2d(64, 64, kernel_size=(3, 3), stride=(1, 1), padding=(1, 1), groups=64, bias=False)
          (bn_depth): SyncBatchNorm(64, eps=1e-05, momentum=0.1, affine=True, track_running_stats=True)
          (pointwise): Conv2d(64, 128, kernel_size=(1, 1), stride=(1, 1), bias=False)
          (bn_point): SyncBatchNorm(128, eps=1e-05, momentum=0.1, affine=True, track_running_stats=True)
        )
      )
      (sep_conv2): SeparableConv2d(
        (block): Sequential(
          (relu): ReLU()
          (depthwise): Conv2d(128, 128, kernel_size=(3, 3), stride=(1, 1), padding=(1, 1), groups=128, bias=False)
          (bn_depth): SyncBatchNorm(128, eps=1e-05, momentum=0.1, affine=True, track_running_stats=True)
          (pointwise): Conv2d(128, 128, kernel_size=(1, 1), stride=(1, 1), bias=False)
          (bn_point): SyncBatchNorm(128, eps=1e-05, momentum=0.1, affine=True, track_running_stats=True)
        )
      )
      (sep_conv3): SeparableConv2d(
        (block): Sequential(
          (relu): ReLU()
          (depthwise): Conv2d(128, 128, kernel_size=(3, 3), stride=(2, 2), padding=(1, 1), groups=128, bias=False)
          (bn_depth): SyncBatchNorm(128, eps=1e-05, momentum=0.1, affine=True, track_running_stats=True)
          (pointwise): Conv2d(128, 128, kernel_size=(1, 1), stride=(1, 1), bias=False)
          (bn_point): SyncBatchNorm(128, eps=1e-05, momentum=0.1, affine=True, track_running_stats=True)
        )
      )
    )
    (block2): XceptionBlock(
      (conv): Conv2d(128, 256, kernel_size=(1, 1), stride=(2, 2), bias=False)
      (bn): SyncBatchNorm(256, eps=1e-05, momentum=0.1, affine=True, track_running_stats=True)
      (sep_conv1): SeparableConv2d(
        (block): Sequential(
          (relu): ReLU()
          (depthwise): Conv2d(128, 128, kernel_size=(3, 3), stride=(1, 1), padding=(1, 1), groups=128, bias=False)
          (bn_depth): SyncBatchNorm(128, eps=1e-05, momentum=0.1, affine=True, track_running_stats=True)
          (pointwise): Conv2d(128, 256, kernel_size=(1, 1), stride=(1, 1), bias=False)
          (bn_point): SyncBatchNorm(256, eps=1e-05, momentum=0.1, affine=True, track_running_stats=True)
        )
      )
      (sep_conv2): SeparableConv2d(
        (block): Sequential(
          (relu): ReLU()
          (depthwise): Conv2d(256, 256, kernel_size=(3, 3), stride=(1, 1), padding=(1, 1), groups=256, bias=False)
          (bn_depth): SyncBatchNorm(256, eps=1e-05, momentum=0.1, affine=True, track_running_stats=True)
          (pointwise): Conv2d(256, 256, kernel_size=(1, 1), stride=(1, 1), bias=False)
          (bn_point): SyncBatchNorm(256, eps=1e-05, momentum=0.1, affine=True, track_running_stats=True)
        )
      )
      (sep_conv3): SeparableConv2d(
        (block): Sequential(
          (relu): ReLU()
          (depthwise): Conv2d(256, 256, kernel_size=(3, 3), stride=(2, 2), padding=(1, 1), groups=256, bias=False)
          (bn_depth): SyncBatchNorm(256, eps=1e-05, momentum=0.1, affine=True, track_running_stats=True)
          (pointwise): Conv2d(256, 256, kernel_size=(1, 1), stride=(1, 1), bias=False)
          (bn_point): SyncBatchNorm(256, eps=1e-05, momentum=0.1, affine=True, track_running_stats=True)
        )
      )
    )
    (block3): XceptionBlock(
      (conv): Conv2d(256, 728, kernel_size=(1, 1), stride=(2, 2), bias=False)
      (bn): SyncBatchNorm(728, eps=1e-05, momentum=0.1, affine=True, track_running_stats=True)
      (sep_conv1): SeparableConv2d(
        (block): Sequential(
          (relu): ReLU()
          (depthwise): Conv2d(256, 256, kernel_size=(3, 3), stride=(1, 1), padding=(1, 1), groups=256, bias=False)
          (bn_depth): SyncBatchNorm(256, eps=1e-05, momentum=0.1, affine=True, track_running_stats=True)
          (pointwise): Conv2d(256, 728, kernel_size=(1, 1), stride=(1, 1), bias=False)
          (bn_point): SyncBatchNorm(728, eps=1e-05, momentum=0.1, affine=True, track_running_stats=True)
        )
      )
      (sep_conv2): SeparableConv2d(
        (block): Sequential(
          (relu): ReLU()
          (depthwise): Conv2d(728, 728, kernel_size=(3, 3), stride=(1, 1), padding=(1, 1), groups=728, bias=False)
          (bn_depth): SyncBatchNorm(728, eps=1e-05, momentum=0.1, affine=True, track_running_stats=True)
          (pointwise): Conv2d(728, 728, kernel_size=(1, 1), stride=(1, 1), bias=False)
          (bn_point): SyncBatchNorm(728, eps=1e-05, momentum=0.1, affine=True, track_running_stats=True)
        )
      )
      (sep_conv3): SeparableConv2d(
        (block): Sequential(
          (relu): ReLU()
          (depthwise): Conv2d(728, 728, kernel_size=(3, 3), stride=(2, 2), padding=(1, 1), groups=728, bias=False)
          (bn_depth): SyncBatchNorm(728, eps=1e-05, momentum=0.1, affine=True, track_running_stats=True)
          (pointwise): Conv2d(728, 728, kernel_size=(1, 1), stride=(1, 1), bias=False)
          (bn_point): SyncBatchNorm(728, eps=1e-05, momentum=0.1, affine=True, track_running_stats=True)
        )
      )
    )
    (block4): XceptionBlock(
      (sep_conv1): SeparableConv2d(
        (block): Sequential(
          (relu): ReLU()
          (depthwise): Conv2d(728, 728, kernel_size=(3, 3), stride=(1, 1), padding=(1, 1), groups=728, bias=False)
          (bn_depth): SyncBatchNorm(728, eps=1e-05, momentum=0.1, affine=True, track_running_stats=True)
          (pointwise): Conv2d(728, 728, kernel_size=(1, 1), stride=(1, 1), bias=False)
          (bn_point): SyncBatchNorm(728, eps=1e-05, momentum=0.1, affine=True, track_running_stats=True)
        )
      )
      (sep_conv2): SeparableConv2d(
        (block): Sequential(
          (relu): ReLU()
          (depthwise): Conv2d(728, 728, kernel_size=(3, 3), stride=(1, 1), padding=(1, 1), groups=728, bias=False)
          (bn_depth): SyncBatchNorm(728, eps=1e-05, momentum=0.1, affine=True, track_running_stats=True)
          (pointwise): Conv2d(728, 728, kernel_size=(1, 1), stride=(1, 1), bias=False)
          (bn_point): SyncBatchNorm(728, eps=1e-05, momentum=0.1, affine=True, track_running_stats=True)
        )
      )
      (sep_conv3): SeparableConv2d(
        (block): Sequential(
          (relu): ReLU()
          (depthwise): Conv2d(728, 728, kernel_size=(3, 3), stride=(1, 1), padding=(1, 1), groups=728, bias=False)
          (bn_depth): SyncBatchNorm(728, eps=1e-05, momentum=0.1, affine=True, track_running_stats=True)
          (pointwise): Conv2d(728, 728, kernel_size=(1, 1), stride=(1, 1), bias=False)
          (bn_point): SyncBatchNorm(728, eps=1e-05, momentum=0.1, affine=True, track_running_stats=True)
        )
      )
    )
    (block5): XceptionBlock(
      (sep_conv1): SeparableConv2d(
        (block): Sequential(
          (relu): ReLU()
          (depthwise): Conv2d(728, 728, kernel_size=(3, 3), stride=(1, 1), padding=(1, 1), groups=728, bias=False)
          (bn_depth): SyncBatchNorm(728, eps=1e-05, momentum=0.1, affine=True, track_running_stats=True)
          (pointwise): Conv2d(728, 728, kernel_size=(1, 1), stride=(1, 1), bias=False)
          (bn_point): SyncBatchNorm(728, eps=1e-05, momentum=0.1, affine=True, track_running_stats=True)
        )
      )
      (sep_conv2): SeparableConv2d(
        (block): Sequential(
          (relu): ReLU()
          (depthwise): Conv2d(728, 728, kernel_size=(3, 3), stride=(1, 1), padding=(1, 1), groups=728, bias=False)
          (bn_depth): SyncBatchNorm(728, eps=1e-05, momentum=0.1, affine=True, track_running_stats=True)
          (pointwise): Conv2d(728, 728, kernel_size=(1, 1), stride=(1, 1), bias=False)
          (bn_point): SyncBatchNorm(728, eps=1e-05, momentum=0.1, affine=True, track_running_stats=True)
        )
      )
      (sep_conv3): SeparableConv2d(
        (block): Sequential(
          (relu): ReLU()
          (depthwise): Conv2d(728, 728, kernel_size=(3, 3), stride=(1, 1), padding=(1, 1), groups=728, bias=False)
          (bn_depth): SyncBatchNorm(728, eps=1e-05, momentum=0.1, affine=True, track_running_stats=True)
          (pointwise): Conv2d(728, 728, kernel_size=(1, 1), stride=(1, 1), bias=False)
          (bn_point): SyncBatchNorm(728, eps=1e-05, momentum=0.1, affine=True, track_running_stats=True)
        )
      )
    )
    (block6): XceptionBlock(
      (sep_conv1): SeparableConv2d(
        (block): Sequential(
          (relu): ReLU()
          (depthwise): Conv2d(728, 728, kernel_size=(3, 3), stride=(1, 1), padding=(1, 1), groups=728, bias=False)
          (bn_depth): SyncBatchNorm(728, eps=1e-05, momentum=0.1, affine=True, track_running_stats=True)
          (pointwise): Conv2d(728, 728, kernel_size=(1, 1), stride=(1, 1), bias=False)
          (bn_point): SyncBatchNorm(728, eps=1e-05, momentum=0.1, affine=True, track_running_stats=True)
        )
      )
      (sep_conv2): SeparableConv2d(
        (block): Sequential(
          (relu): ReLU()
          (depthwise): Conv2d(728, 728, kernel_size=(3, 3), stride=(1, 1), padding=(1, 1), groups=728, bias=False)
          (bn_depth): SyncBatchNorm(728, eps=1e-05, momentum=0.1, affine=True, track_running_stats=True)
          (pointwise): Conv2d(728, 728, kernel_size=(1, 1), stride=(1, 1), bias=False)
          (bn_point): SyncBatchNorm(728, eps=1e-05, momentum=0.1, affine=True, track_running_stats=True)
        )
      )
      (sep_conv3): SeparableConv2d(
        (block): Sequential(
          (relu): ReLU()
          (depthwise): Conv2d(728, 728, kernel_size=(3, 3), stride=(1, 1), padding=(1, 1), groups=728, bias=False)
          (bn_depth): SyncBatchNorm(728, eps=1e-05, momentum=0.1, affine=True, track_running_stats=True)
          (pointwise): Conv2d(728, 728, kernel_size=(1, 1), stride=(1, 1), bias=False)
          (bn_point): SyncBatchNorm(728, eps=1e-05, momentum=0.1, affine=True, track_running_stats=True)
        )
      )
    )
    (block7): XceptionBlock(
      (sep_conv1): SeparableConv2d(
        (block): Sequential(
          (relu): ReLU()
          (depthwise): Conv2d(728, 728, kernel_size=(3, 3), stride=(1, 1), padding=(1, 1), groups=728, bias=False)
          (bn_depth): SyncBatchNorm(728, eps=1e-05, momentum=0.1, affine=True, track_running_stats=True)
          (pointwise): Conv2d(728, 728, kernel_size=(1, 1), stride=(1, 1), bias=False)
          (bn_point): SyncBatchNorm(728, eps=1e-05, momentum=0.1, affine=True, track_running_stats=True)
        )
      )
      (sep_conv2): SeparableConv2d(
        (block): Sequential(
          (relu): ReLU()
          (depthwise): Conv2d(728, 728, kernel_size=(3, 3), stride=(1, 1), padding=(1, 1), groups=728, bias=False)
          (bn_depth): SyncBatchNorm(728, eps=1e-05, momentum=0.1, affine=True, track_running_stats=True)
          (pointwise): Conv2d(728, 728, kernel_size=(1, 1), stride=(1, 1), bias=False)
          (bn_point): SyncBatchNorm(728, eps=1e-05, momentum=0.1, affine=True, track_running_stats=True)
        )
      )
      (sep_conv3): SeparableConv2d(
        (block): Sequential(
          (relu): ReLU()
          (depthwise): Conv2d(728, 728, kernel_size=(3, 3), stride=(1, 1), padding=(1, 1), groups=728, bias=False)
          (bn_depth): SyncBatchNorm(728, eps=1e-05, momentum=0.1, affine=True, track_running_stats=True)
          (pointwise): Conv2d(728, 728, kernel_size=(1, 1), stride=(1, 1), bias=False)
          (bn_point): SyncBatchNorm(728, eps=1e-05, momentum=0.1, affine=True, track_running_stats=True)
        )
      )
    )
    (block8): XceptionBlock(
      (sep_conv1): SeparableConv2d(
        (block): Sequential(
          (relu): ReLU()
          (depthwise): Conv2d(728, 728, kernel_size=(3, 3), stride=(1, 1), padding=(1, 1), groups=728, bias=False)
          (bn_depth): SyncBatchNorm(728, eps=1e-05, momentum=0.1, affine=True, track_running_stats=True)
          (pointwise): Conv2d(728, 728, kernel_size=(1, 1), stride=(1, 1), bias=False)
          (bn_point): SyncBatchNorm(728, eps=1e-05, momentum=0.1, affine=True, track_running_stats=True)
        )
      )
      (sep_conv2): SeparableConv2d(
        (block): Sequential(
          (relu): ReLU()
          (depthwise): Conv2d(728, 728, kernel_size=(3, 3), stride=(1, 1), padding=(1, 1), groups=728, bias=False)
          (bn_depth): SyncBatchNorm(728, eps=1e-05, momentum=0.1, affine=True, track_running_stats=True)
          (pointwise): Conv2d(728, 728, kernel_size=(1, 1), stride=(1, 1), bias=False)
          (bn_point): SyncBatchNorm(728, eps=1e-05, momentum=0.1, affine=True, track_running_stats=True)
        )
      )
      (sep_conv3): SeparableConv2d(
        (block): Sequential(
          (relu): ReLU()
          (depthwise): Conv2d(728, 728, kernel_size=(3, 3), stride=(1, 1), padding=(1, 1), groups=728, bias=False)
          (bn_depth): SyncBatchNorm(728, eps=1e-05, momentum=0.1, affine=True, track_running_stats=True)
          (pointwise): Conv2d(728, 728, kernel_size=(1, 1), stride=(1, 1), bias=False)
          (bn_point): SyncBatchNorm(728, eps=1e-05, momentum=0.1, affine=True, track_running_stats=True)
        )
      )
    )
    (block9): XceptionBlock(
      (sep_conv1): SeparableConv2d(
        (block): Sequential(
          (relu): ReLU()
          (depthwise): Conv2d(728, 728, kernel_size=(3, 3), stride=(1, 1), padding=(1, 1), groups=728, bias=False)
          (bn_depth): SyncBatchNorm(728, eps=1e-05, momentum=0.1, affine=True, track_running_stats=True)
          (pointwise): Conv2d(728, 728, kernel_size=(1, 1), stride=(1, 1), bias=False)
          (bn_point): SyncBatchNorm(728, eps=1e-05, momentum=0.1, affine=True, track_running_stats=True)
        )
      )
      (sep_conv2): SeparableConv2d(
        (block): Sequential(
          (relu): ReLU()
          (depthwise): Conv2d(728, 728, kernel_size=(3, 3), stride=(1, 1), padding=(1, 1), groups=728, bias=False)
          (bn_depth): SyncBatchNorm(728, eps=1e-05, momentum=0.1, affine=True, track_running_stats=True)
          (pointwise): Conv2d(728, 728, kernel_size=(1, 1), stride=(1, 1), bias=False)
          (bn_point): SyncBatchNorm(728, eps=1e-05, momentum=0.1, affine=True, track_running_stats=True)
        )
      )
      (sep_conv3): SeparableConv2d(
        (block): Sequential(
          (relu): ReLU()
          (depthwise): Conv2d(728, 728, kernel_size=(3, 3), stride=(1, 1), padding=(1, 1), groups=728, bias=False)
          (bn_depth): SyncBatchNorm(728, eps=1e-05, momentum=0.1, affine=True, track_running_stats=True)
          (pointwise): Conv2d(728, 728, kernel_size=(1, 1), stride=(1, 1), bias=False)
          (bn_point): SyncBatchNorm(728, eps=1e-05, momentum=0.1, affine=True, track_running_stats=True)
        )
      )
    )
    (block10): XceptionBlock(
      (sep_conv1): SeparableConv2d(
        (block): Sequential(
          (relu): ReLU()
          (depthwise): Conv2d(728, 728, kernel_size=(3, 3), stride=(1, 1), padding=(1, 1), groups=728, bias=False)
          (bn_depth): SyncBatchNorm(728, eps=1e-05, momentum=0.1, affine=True, track_running_stats=True)
          (pointwise): Conv2d(728, 728, kernel_size=(1, 1), stride=(1, 1), bias=False)
          (bn_point): SyncBatchNorm(728, eps=1e-05, momentum=0.1, affine=True, track_running_stats=True)
        )
      )
      (sep_conv2): SeparableConv2d(
        (block): Sequential(
          (relu): ReLU()
          (depthwise): Conv2d(728, 728, kernel_size=(3, 3), stride=(1, 1), padding=(1, 1), groups=728, bias=False)
          (bn_depth): SyncBatchNorm(728, eps=1e-05, momentum=0.1, affine=True, track_running_stats=True)
          (pointwise): Conv2d(728, 728, kernel_size=(1, 1), stride=(1, 1), bias=False)
          (bn_point): SyncBatchNorm(728, eps=1e-05, momentum=0.1, affine=True, track_running_stats=True)
        )
      )
      (sep_conv3): SeparableConv2d(
        (block): Sequential(
          (relu): ReLU()
          (depthwise): Conv2d(728, 728, kernel_size=(3, 3), stride=(1, 1), padding=(1, 1), groups=728, bias=False)
          (bn_depth): SyncBatchNorm(728, eps=1e-05, momentum=0.1, affine=True, track_running_stats=True)
          (pointwise): Conv2d(728, 728, kernel_size=(1, 1), stride=(1, 1), bias=False)
          (bn_point): SyncBatchNorm(728, eps=1e-05, momentum=0.1, affine=True, track_running_stats=True)
        )
      )
    )
    (block11): XceptionBlock(
      (sep_conv1): SeparableConv2d(
        (block): Sequential(
          (relu): ReLU()
          (depthwise): Conv2d(728, 728, kernel_size=(3, 3), stride=(1, 1), padding=(1, 1), groups=728, bias=False)
          (bn_depth): SyncBatchNorm(728, eps=1e-05, momentum=0.1, affine=True, track_running_stats=True)
          (pointwise): Conv2d(728, 728, kernel_size=(1, 1), stride=(1, 1), bias=False)
          (bn_point): SyncBatchNorm(728, eps=1e-05, momentum=0.1, affine=True, track_running_stats=True)
        )
      )
      (sep_conv2): SeparableConv2d(
        (block): Sequential(
          (relu): ReLU()
          (depthwise): Conv2d(728, 728, kernel_size=(3, 3), stride=(1, 1), padding=(1, 1), groups=728, bias=False)
          (bn_depth): SyncBatchNorm(728, eps=1e-05, momentum=0.1, affine=True, track_running_stats=True)
          (pointwise): Conv2d(728, 728, kernel_size=(1, 1), stride=(1, 1), bias=False)
          (bn_point): SyncBatchNorm(728, eps=1e-05, momentum=0.1, affine=True, track_running_stats=True)
        )
      )
      (sep_conv3): SeparableConv2d(
        (block): Sequential(
          (relu): ReLU()
          (depthwise): Conv2d(728, 728, kernel_size=(3, 3), stride=(1, 1), padding=(1, 1), groups=728, bias=False)
          (bn_depth): SyncBatchNorm(728, eps=1e-05, momentum=0.1, affine=True, track_running_stats=True)
          (pointwise): Conv2d(728, 728, kernel_size=(1, 1), stride=(1, 1), bias=False)
          (bn_point): SyncBatchNorm(728, eps=1e-05, momentum=0.1, affine=True, track_running_stats=True)
        )
      )
    )
    (block12): XceptionBlock(
      (sep_conv1): SeparableConv2d(
        (block): Sequential(
          (relu): ReLU()
          (depthwise): Conv2d(728, 728, kernel_size=(3, 3), stride=(1, 1), padding=(1, 1), groups=728, bias=False)
          (bn_depth): SyncBatchNorm(728, eps=1e-05, momentum=0.1, affine=True, track_running_stats=True)
          (pointwise): Conv2d(728, 728, kernel_size=(1, 1), stride=(1, 1), bias=False)
          (bn_point): SyncBatchNorm(728, eps=1e-05, momentum=0.1, affine=True, track_running_stats=True)
        )
      )
      (sep_conv2): SeparableConv2d(
        (block): Sequential(
          (relu): ReLU()
          (depthwise): Conv2d(728, 728, kernel_size=(3, 3), stride=(1, 1), padding=(1, 1), groups=728, bias=False)
          (bn_depth): SyncBatchNorm(728, eps=1e-05, momentum=0.1, affine=True, track_running_stats=True)
          (pointwise): Conv2d(728, 728, kernel_size=(1, 1), stride=(1, 1), bias=False)
          (bn_point): SyncBatchNorm(728, eps=1e-05, momentum=0.1, affine=True, track_running_stats=True)
        )
      )
      (sep_conv3): SeparableConv2d(
        (block): Sequential(
          (relu): ReLU()
          (depthwise): Conv2d(728, 728, kernel_size=(3, 3), stride=(1, 1), padding=(1, 1), groups=728, bias=False)
          (bn_depth): SyncBatchNorm(728, eps=1e-05, momentum=0.1, affine=True, track_running_stats=True)
          (pointwise): Conv2d(728, 728, kernel_size=(1, 1), stride=(1, 1), bias=False)
          (bn_point): SyncBatchNorm(728, eps=1e-05, momentum=0.1, affine=True, track_running_stats=True)
        )
      )
    )
    (block13): XceptionBlock(
      (sep_conv1): SeparableConv2d(
        (block): Sequential(
          (relu): ReLU()
          (depthwise): Conv2d(728, 728, kernel_size=(3, 3), stride=(1, 1), padding=(1, 1), groups=728, bias=False)
          (bn_depth): SyncBatchNorm(728, eps=1e-05, momentum=0.1, affine=True, track_running_stats=True)
          (pointwise): Conv2d(728, 728, kernel_size=(1, 1), stride=(1, 1), bias=False)
          (bn_point): SyncBatchNorm(728, eps=1e-05, momentum=0.1, affine=True, track_running_stats=True)
        )
      )
      (sep_conv2): SeparableConv2d(
        (block): Sequential(
          (relu): ReLU()
          (depthwise): Conv2d(728, 728, kernel_size=(3, 3), stride=(1, 1), padding=(1, 1), groups=728, bias=False)
          (bn_depth): SyncBatchNorm(728, eps=1e-05, momentum=0.1, affine=True, track_running_stats=True)
          (pointwise): Conv2d(728, 728, kernel_size=(1, 1), stride=(1, 1), bias=False)
          (bn_point): SyncBatchNorm(728, eps=1e-05, momentum=0.1, affine=True, track_running_stats=True)
        )
      )
      (sep_conv3): SeparableConv2d(
        (block): Sequential(
          (relu): ReLU()
          (depthwise): Conv2d(728, 728, kernel_size=(3, 3), stride=(1, 1), padding=(1, 1), groups=728, bias=False)
          (bn_depth): SyncBatchNorm(728, eps=1e-05, momentum=0.1, affine=True, track_running_stats=True)
          (pointwise): Conv2d(728, 728, kernel_size=(1, 1), stride=(1, 1), bias=False)
          (bn_point): SyncBatchNorm(728, eps=1e-05, momentum=0.1, affine=True, track_running_stats=True)
        )
      )
    )
    (block14): XceptionBlock(
      (sep_conv1): SeparableConv2d(
        (block): Sequential(
          (relu): ReLU()
          (depthwise): Conv2d(728, 728, kernel_size=(3, 3), stride=(1, 1), padding=(1, 1), groups=728, bias=False)
          (bn_depth): SyncBatchNorm(728, eps=1e-05, momentum=0.1, affine=True, track_running_stats=True)
          (pointwise): Conv2d(728, 728, kernel_size=(1, 1), stride=(1, 1), bias=False)
          (bn_point): SyncBatchNorm(728, eps=1e-05, momentum=0.1, affine=True, track_running_stats=True)
        )
      )
      (sep_conv2): SeparableConv2d(
        (block): Sequential(
          (relu): ReLU()
          (depthwise): Conv2d(728, 728, kernel_size=(3, 3), stride=(1, 1), padding=(1, 1), groups=728, bias=False)
          (bn_depth): SyncBatchNorm(728, eps=1e-05, momentum=0.1, affine=True, track_running_stats=True)
          (pointwise): Conv2d(728, 728, kernel_size=(1, 1), stride=(1, 1), bias=False)
          (bn_point): SyncBatchNorm(728, eps=1e-05, momentum=0.1, affine=True, track_running_stats=True)
        )
      )
      (sep_conv3): SeparableConv2d(
        (block): Sequential(
          (relu): ReLU()
          (depthwise): Conv2d(728, 728, kernel_size=(3, 3), stride=(1, 1), padding=(1, 1), groups=728, bias=False)
          (bn_depth): SyncBatchNorm(728, eps=1e-05, momentum=0.1, affine=True, track_running_stats=True)
          (pointwise): Conv2d(728, 728, kernel_size=(1, 1), stride=(1, 1), bias=False)
          (bn_point): SyncBatchNorm(728, eps=1e-05, momentum=0.1, affine=True, track_running_stats=True)
        )
      )
    )
    (block15): XceptionBlock(
      (sep_conv1): SeparableConv2d(
        (block): Sequential(
          (relu): ReLU()
          (depthwise): Conv2d(728, 728, kernel_size=(3, 3), stride=(1, 1), padding=(1, 1), groups=728, bias=False)
          (bn_depth): SyncBatchNorm(728, eps=1e-05, momentum=0.1, affine=True, track_running_stats=True)
          (pointwise): Conv2d(728, 728, kernel_size=(1, 1), stride=(1, 1), bias=False)
          (bn_point): SyncBatchNorm(728, eps=1e-05, momentum=0.1, affine=True, track_running_stats=True)
        )
      )
      (sep_conv2): SeparableConv2d(
        (block): Sequential(
          (relu): ReLU()
          (depthwise): Conv2d(728, 728, kernel_size=(3, 3), stride=(1, 1), padding=(1, 1), groups=728, bias=False)
          (bn_depth): SyncBatchNorm(728, eps=1e-05, momentum=0.1, affine=True, track_running_stats=True)
          (pointwise): Conv2d(728, 728, kernel_size=(1, 1), stride=(1, 1), bias=False)
          (bn_point): SyncBatchNorm(728, eps=1e-05, momentum=0.1, affine=True, track_running_stats=True)
        )
      )
      (sep_conv3): SeparableConv2d(
        (block): Sequential(
          (relu): ReLU()
          (depthwise): Conv2d(728, 728, kernel_size=(3, 3), stride=(1, 1), padding=(1, 1), groups=728, bias=False)
          (bn_depth): SyncBatchNorm(728, eps=1e-05, momentum=0.1, affine=True, track_running_stats=True)
          (pointwise): Conv2d(728, 728, kernel_size=(1, 1), stride=(1, 1), bias=False)
          (bn_point): SyncBatchNorm(728, eps=1e-05, momentum=0.1, affine=True, track_running_stats=True)
        )
      )
    )
    (block16): XceptionBlock(
      (sep_conv1): SeparableConv2d(
        (block): Sequential(
          (relu): ReLU()
          (depthwise): Conv2d(728, 728, kernel_size=(3, 3), stride=(1, 1), padding=(1, 1), groups=728, bias=False)
          (bn_depth): SyncBatchNorm(728, eps=1e-05, momentum=0.1, affine=True, track_running_stats=True)
          (pointwise): Conv2d(728, 728, kernel_size=(1, 1), stride=(1, 1), bias=False)
          (bn_point): SyncBatchNorm(728, eps=1e-05, momentum=0.1, affine=True, track_running_stats=True)
        )
      )
      (sep_conv2): SeparableConv2d(
        (block): Sequential(
          (relu): ReLU()
          (depthwise): Conv2d(728, 728, kernel_size=(3, 3), stride=(1, 1), padding=(1, 1), groups=728, bias=False)
          (bn_depth): SyncBatchNorm(728, eps=1e-05, momentum=0.1, affine=True, track_running_stats=True)
          (pointwise): Conv2d(728, 728, kernel_size=(1, 1), stride=(1, 1), bias=False)
          (bn_point): SyncBatchNorm(728, eps=1e-05, momentum=0.1, affine=True, track_running_stats=True)
        )
      )
      (sep_conv3): SeparableConv2d(
        (block): Sequential(
          (relu): ReLU()
          (depthwise): Conv2d(728, 728, kernel_size=(3, 3), stride=(1, 1), padding=(1, 1), groups=728, bias=False)
          (bn_depth): SyncBatchNorm(728, eps=1e-05, momentum=0.1, affine=True, track_running_stats=True)
          (pointwise): Conv2d(728, 728, kernel_size=(1, 1), stride=(1, 1), bias=False)
          (bn_point): SyncBatchNorm(728, eps=1e-05, momentum=0.1, affine=True, track_running_stats=True)
        )
      )
    )
    (block17): XceptionBlock(
      (sep_conv1): SeparableConv2d(
        (block): Sequential(
          (relu): ReLU()
          (depthwise): Conv2d(728, 728, kernel_size=(3, 3), stride=(1, 1), padding=(1, 1), groups=728, bias=False)
          (bn_depth): SyncBatchNorm(728, eps=1e-05, momentum=0.1, affine=True, track_running_stats=True)
          (pointwise): Conv2d(728, 728, kernel_size=(1, 1), stride=(1, 1), bias=False)
          (bn_point): SyncBatchNorm(728, eps=1e-05, momentum=0.1, affine=True, track_running_stats=True)
        )
      )
      (sep_conv2): SeparableConv2d(
        (block): Sequential(
          (relu): ReLU()
          (depthwise): Conv2d(728, 728, kernel_size=(3, 3), stride=(1, 1), padding=(1, 1), groups=728, bias=False)
          (bn_depth): SyncBatchNorm(728, eps=1e-05, momentum=0.1, affine=True, track_running_stats=True)
          (pointwise): Conv2d(728, 728, kernel_size=(1, 1), stride=(1, 1), bias=False)
          (bn_point): SyncBatchNorm(728, eps=1e-05, momentum=0.1, affine=True, track_running_stats=True)
        )
      )
      (sep_conv3): SeparableConv2d(
        (block): Sequential(
          (relu): ReLU()
          (depthwise): Conv2d(728, 728, kernel_size=(3, 3), stride=(1, 1), padding=(1, 1), groups=728, bias=False)
          (bn_depth): SyncBatchNorm(728, eps=1e-05, momentum=0.1, affine=True, track_running_stats=True)
          (pointwise): Conv2d(728, 728, kernel_size=(1, 1), stride=(1, 1), bias=False)
          (bn_point): SyncBatchNorm(728, eps=1e-05, momentum=0.1, affine=True, track_running_stats=True)
        )
      )
    )
    (block18): XceptionBlock(
      (sep_conv1): SeparableConv2d(
        (block): Sequential(
          (relu): ReLU()
          (depthwise): Conv2d(728, 728, kernel_size=(3, 3), stride=(1, 1), padding=(1, 1), groups=728, bias=False)
          (bn_depth): SyncBatchNorm(728, eps=1e-05, momentum=0.1, affine=True, track_running_stats=True)
          (pointwise): Conv2d(728, 728, kernel_size=(1, 1), stride=(1, 1), bias=False)
          (bn_point): SyncBatchNorm(728, eps=1e-05, momentum=0.1, affine=True, track_running_stats=True)
        )
      )
      (sep_conv2): SeparableConv2d(
        (block): Sequential(
          (relu): ReLU()
          (depthwise): Conv2d(728, 728, kernel_size=(3, 3), stride=(1, 1), padding=(1, 1), groups=728, bias=False)
          (bn_depth): SyncBatchNorm(728, eps=1e-05, momentum=0.1, affine=True, track_running_stats=True)
          (pointwise): Conv2d(728, 728, kernel_size=(1, 1), stride=(1, 1), bias=False)
          (bn_point): SyncBatchNorm(728, eps=1e-05, momentum=0.1, affine=True, track_running_stats=True)
        )
      )
      (sep_conv3): SeparableConv2d(
        (block): Sequential(
          (relu): ReLU()
          (depthwise): Conv2d(728, 728, kernel_size=(3, 3), stride=(1, 1), padding=(1, 1), groups=728, bias=False)
          (bn_depth): SyncBatchNorm(728, eps=1e-05, momentum=0.1, affine=True, track_running_stats=True)
          (pointwise): Conv2d(728, 728, kernel_size=(1, 1), stride=(1, 1), bias=False)
          (bn_point): SyncBatchNorm(728, eps=1e-05, momentum=0.1, affine=True, track_running_stats=True)
        )
      )
    )
    (block19): XceptionBlock(
      (sep_conv1): SeparableConv2d(
        (block): Sequential(
          (relu): ReLU()
          (depthwise): Conv2d(728, 728, kernel_size=(3, 3), stride=(1, 1), padding=(1, 1), groups=728, bias=False)
          (bn_depth): SyncBatchNorm(728, eps=1e-05, momentum=0.1, affine=True, track_running_stats=True)
          (pointwise): Conv2d(728, 728, kernel_size=(1, 1), stride=(1, 1), bias=False)
          (bn_point): SyncBatchNorm(728, eps=1e-05, momentum=0.1, affine=True, track_running_stats=True)
        )
      )
      (sep_conv2): SeparableConv2d(
        (block): Sequential(
          (relu): ReLU()
          (depthwise): Conv2d(728, 728, kernel_size=(3, 3), stride=(1, 1), padding=(1, 1), groups=728, bias=False)
          (bn_depth): SyncBatchNorm(728, eps=1e-05, momentum=0.1, affine=True, track_running_stats=True)
          (pointwise): Conv2d(728, 728, kernel_size=(1, 1), stride=(1, 1), bias=False)
          (bn_point): SyncBatchNorm(728, eps=1e-05, momentum=0.1, affine=True, track_running_stats=True)
        )
      )
      (sep_conv3): SeparableConv2d(
        (block): Sequential(
          (relu): ReLU()
          (depthwise): Conv2d(728, 728, kernel_size=(3, 3), stride=(1, 1), padding=(1, 1), groups=728, bias=False)
          (bn_depth): SyncBatchNorm(728, eps=1e-05, momentum=0.1, affine=True, track_running_stats=True)
          (pointwise): Conv2d(728, 728, kernel_size=(1, 1), stride=(1, 1), bias=False)
          (bn_point): SyncBatchNorm(728, eps=1e-05, momentum=0.1, affine=True, track_running_stats=True)
        )
      )
    )
    (block20): XceptionBlock(
      (conv): Conv2d(728, 1024, kernel_size=(1, 1), stride=(1, 1), bias=False)
      (bn): SyncBatchNorm(1024, eps=1e-05, momentum=0.1, affine=True, track_running_stats=True)
      (sep_conv1): SeparableConv2d(
        (block): Sequential(
          (relu): ReLU()
          (depthwise): Conv2d(728, 728, kernel_size=(3, 3), stride=(1, 1), padding=(1, 1), groups=728, bias=False)
          (bn_depth): SyncBatchNorm(728, eps=1e-05, momentum=0.1, affine=True, track_running_stats=True)
          (pointwise): Conv2d(728, 728, kernel_size=(1, 1), stride=(1, 1), bias=False)
          (bn_point): SyncBatchNorm(728, eps=1e-05, momentum=0.1, affine=True, track_running_stats=True)
        )
      )
      (sep_conv2): SeparableConv2d(
        (block): Sequential(
          (relu): ReLU()
          (depthwise): Conv2d(728, 728, kernel_size=(3, 3), stride=(1, 1), padding=(1, 1), groups=728, bias=False)
          (bn_depth): SyncBatchNorm(728, eps=1e-05, momentum=0.1, affine=True, track_running_stats=True)
          (pointwise): Conv2d(728, 1024, kernel_size=(1, 1), stride=(1, 1), bias=False)
          (bn_point): SyncBatchNorm(1024, eps=1e-05, momentum=0.1, affine=True, track_running_stats=True)
        )
      )
      (sep_conv3): SeparableConv2d(
        (block): Sequential(
          (relu): ReLU()
          (depthwise): Conv2d(1024, 1024, kernel_size=(3, 3), stride=(1, 1), padding=(1, 1), groups=1024, bias=False)
          (bn_depth): SyncBatchNorm(1024, eps=1e-05, momentum=0.1, affine=True, track_running_stats=True)
          (pointwise): Conv2d(1024, 1024, kernel_size=(1, 1), stride=(1, 1), bias=False)
          (bn_point): SyncBatchNorm(1024, eps=1e-05, momentum=0.1, affine=True, track_running_stats=True)
        )
      )
    )
    (block21): XceptionBlock(
      (sep_conv1): SeparableConv2d(
        (block): Sequential(
          (depthwise): Conv2d(1024, 1024, kernel_size=(3, 3), stride=(1, 1), padding=(2, 2), dilation=(2, 2), groups=1024, bias=False)
          (bn_depth): SyncBatchNorm(1024, eps=1e-05, momentum=0.1, affine=True, track_running_stats=True)
          (relu1): ReLU(inplace=True)
          (pointwise): Conv2d(1024, 1536, kernel_size=(1, 1), stride=(1, 1), bias=False)
          (bn_point): SyncBatchNorm(1536, eps=1e-05, momentum=0.1, affine=True, track_running_stats=True)
          (relu2): ReLU(inplace=True)
        )
      )
      (sep_conv2): SeparableConv2d(
        (block): Sequential(
          (depthwise): Conv2d(1536, 1536, kernel_size=(3, 3), stride=(1, 1), padding=(2, 2), dilation=(2, 2), groups=1536, bias=False)
          (bn_depth): SyncBatchNorm(1536, eps=1e-05, momentum=0.1, affine=True, track_running_stats=True)
          (relu1): ReLU(inplace=True)
          (pointwise): Conv2d(1536, 1536, kernel_size=(1, 1), stride=(1, 1), bias=False)
          (bn_point): SyncBatchNorm(1536, eps=1e-05, momentum=0.1, affine=True, track_running_stats=True)
          (relu2): ReLU(inplace=True)
        )
      )
      (sep_conv3): SeparableConv2d(
        (block): Sequential(
          (depthwise): Conv2d(1536, 1536, kernel_size=(3, 3), stride=(1, 1), padding=(2, 2), dilation=(2, 2), groups=1536, bias=False)
          (bn_depth): SyncBatchNorm(1536, eps=1e-05, momentum=0.1, affine=True, track_running_stats=True)
          (relu1): ReLU(inplace=True)
          (pointwise): Conv2d(1536, 2048, kernel_size=(1, 1), stride=(1, 1), bias=False)
          (bn_point): SyncBatchNorm(2048, eps=1e-05, momentum=0.1, affine=True, track_running_stats=True)
          (relu2): ReLU(inplace=True)
        )
      )
    )
  )
  (sem_seg_head): PanopticDeepLabSemSegHead(
    (decoder): ModuleDict(
      (res2): ModuleDict(
        (project_conv): Conv2d(
          256, 32, kernel_size=(1, 1), stride=(1, 1), bias=False
          (norm): SyncBatchNorm(32, eps=1e-05, momentum=0.1, affine=True, track_running_stats=True)
        )
        (fuse_conv): Sequential(
          (0): Conv2d(
            288, 256, kernel_size=(3, 3), stride=(1, 1), padding=(1, 1), bias=False
            (norm): SyncBatchNorm(256, eps=1e-05, momentum=0.1, affine=True, track_running_stats=True)
          )
          (1): Conv2d(
            256, 256, kernel_size=(3, 3), stride=(1, 1), padding=(1, 1), bias=False
            (norm): SyncBatchNorm(256, eps=1e-05, momentum=0.1, affine=True, track_running_stats=True)
          )
        )
      )
      (res3): ModuleDict(
        (project_conv): Conv2d(
          728, 64, kernel_size=(1, 1), stride=(1, 1), bias=False
          (norm): SyncBatchNorm(64, eps=1e-05, momentum=0.1, affine=True, track_running_stats=True)
        )
        (fuse_conv): Sequential(
          (0): Conv2d(
            320, 256, kernel_size=(3, 3), stride=(1, 1), padding=(1, 1), bias=False
            (norm): SyncBatchNorm(256, eps=1e-05, momentum=0.1, affine=True, track_running_stats=True)
          )
          (1): Conv2d(
            256, 256, kernel_size=(3, 3), stride=(1, 1), padding=(1, 1), bias=False
            (norm): SyncBatchNorm(256, eps=1e-05, momentum=0.1, affine=True, track_running_stats=True)
          )
        )
      )
      (res5): ModuleDict(
        (project_conv): ASPP(
          (convs): ModuleList(
            (0): Conv2d(
              2048, 256, kernel_size=(1, 1), stride=(1, 1), bias=False
              (norm): SyncBatchNorm(256, eps=1e-05, momentum=0.1, affine=True, track_running_stats=True)
            )
            (1): Conv2d(
              2048, 256, kernel_size=(3, 3), stride=(1, 1), padding=(6, 6), dilation=(6, 6), bias=False
              (norm): SyncBatchNorm(256, eps=1e-05, momentum=0.1, affine=True, track_running_stats=True)
            )
            (2): Conv2d(
              2048, 256, kernel_size=(3, 3), stride=(1, 1), padding=(12, 12), dilation=(12, 12), bias=False
              (norm): SyncBatchNorm(256, eps=1e-05, momentum=0.1, affine=True, track_running_stats=True)
            )
            (3): Conv2d(
              2048, 256, kernel_size=(3, 3), stride=(1, 1), padding=(18, 18), dilation=(18, 18), bias=False
              (norm): SyncBatchNorm(256, eps=1e-05, momentum=0.1, affine=True, track_running_stats=True)
            )
            (4): Sequential(
              (0): AvgPool2d(kernel_size=(32, 64), stride=1, padding=0)
              (1): Conv2d(2048, 256, kernel_size=(1, 1), stride=(1, 1))
            )
          )
          (project): Conv2d(
            1280, 256, kernel_size=(1, 1), stride=(1, 1), bias=False
            (norm): SyncBatchNorm(256, eps=1e-05, momentum=0.1, affine=True, track_running_stats=True)
          )
        )
        (fuse_conv): None
      )
    )
    (head): Sequential(
      (0): Conv2d(
        256, 256, kernel_size=(3, 3), stride=(1, 1), padding=(1, 1), bias=False
        (norm): SyncBatchNorm(256, eps=1e-05, momentum=0.1, affine=True, track_running_stats=True)
      )
      (1): Conv2d(
        256, 256, kernel_size=(3, 3), stride=(1, 1), padding=(1, 1), bias=False
        (norm): SyncBatchNorm(256, eps=1e-05, momentum=0.1, affine=True, track_running_stats=True)
      )
    )
    (predictor): Conv2d(256, 19, kernel_size=(1, 1), stride=(1, 1))
    (loss): DeepLabCE(
      (criterion): CrossEntropyLoss()
    )
  )
  (ins_embed_head): PanopticDeepLabInsEmbedHead(
    (decoder): ModuleDict(
      (res2): ModuleDict(
        (project_conv): Conv2d(
          256, 32, kernel_size=(1, 1), stride=(1, 1), bias=False
          (norm): SyncBatchNorm(32, eps=1e-05, momentum=0.1, affine=True, track_running_stats=True)
        )
        (fuse_conv): Sequential(
          (0): Conv2d(
            160, 128, kernel_size=(3, 3), stride=(1, 1), padding=(1, 1), bias=False
            (norm): SyncBatchNorm(128, eps=1e-05, momentum=0.1, affine=True, track_running_stats=True)
          )
          (1): Conv2d(
            128, 128, kernel_size=(3, 3), stride=(1, 1), padding=(1, 1), bias=False
            (norm): SyncBatchNorm(128, eps=1e-05, momentum=0.1, affine=True, track_running_stats=True)
          )
        )
      )
      (res3): ModuleDict(
        (project_conv): Conv2d(
          728, 64, kernel_size=(1, 1), stride=(1, 1), bias=False
          (norm): SyncBatchNorm(64, eps=1e-05, momentum=0.1, affine=True, track_running_stats=True)
        )
        (fuse_conv): Sequential(
          (0): Conv2d(
            320, 128, kernel_size=(3, 3), stride=(1, 1), padding=(1, 1), bias=False
            (norm): SyncBatchNorm(128, eps=1e-05, momentum=0.1, affine=True, track_running_stats=True)
          )
          (1): Conv2d(
            128, 128, kernel_size=(3, 3), stride=(1, 1), padding=(1, 1), bias=False
            (norm): SyncBatchNorm(128, eps=1e-05, momentum=0.1, affine=True, track_running_stats=True)
          )
        )
      )
      (res5): ModuleDict(
        (project_conv): ASPP(
          (convs): ModuleList(
            (0): Conv2d(
              2048, 256, kernel_size=(1, 1), stride=(1, 1), bias=False
              (norm): SyncBatchNorm(256, eps=1e-05, momentum=0.1, affine=True, track_running_stats=True)
            )
            (1): Conv2d(
              2048, 256, kernel_size=(3, 3), stride=(1, 1), padding=(6, 6), dilation=(6, 6), bias=False
              (norm): SyncBatchNorm(256, eps=1e-05, momentum=0.1, affine=True, track_running_stats=True)
            )
            (2): Conv2d(
              2048, 256, kernel_size=(3, 3), stride=(1, 1), padding=(12, 12), dilation=(12, 12), bias=False
              (norm): SyncBatchNorm(256, eps=1e-05, momentum=0.1, affine=True, track_running_stats=True)
            )
            (3): Conv2d(
              2048, 256, kernel_size=(3, 3), stride=(1, 1), padding=(18, 18), dilation=(18, 18), bias=False
              (norm): SyncBatchNorm(256, eps=1e-05, momentum=0.1, affine=True, track_running_stats=True)
            )
            (4): Sequential(
              (0): AvgPool2d(kernel_size=(32, 64), stride=1, padding=0)
              (1): Conv2d(2048, 256, kernel_size=(1, 1), stride=(1, 1))
            )
          )
          (project): Conv2d(
            1280, 256, kernel_size=(1, 1), stride=(1, 1), bias=False
            (norm): SyncBatchNorm(256, eps=1e-05, momentum=0.1, affine=True, track_running_stats=True)
          )
        )
        (fuse_conv): None
      )
    )
    (center_head): Sequential(
      (0): Conv2d(
        128, 128, kernel_size=(3, 3), stride=(1, 1), padding=(1, 1), bias=False
        (norm): SyncBatchNorm(128, eps=1e-05, momentum=0.1, affine=True, track_running_stats=True)
      )
      (1): Conv2d(
        128, 32, kernel_size=(3, 3), stride=(1, 1), padding=(1, 1), bias=False
        (norm): SyncBatchNorm(32, eps=1e-05, momentum=0.1, affine=True, track_running_stats=True)
      )
    )
    (center_predictor): Conv2d(32, 1, kernel_size=(1, 1), stride=(1, 1))
    (offset_head): Sequential(
      (0): Conv2d(
        128, 128, kernel_size=(3, 3), stride=(1, 1), padding=(1, 1), bias=False
        (norm): SyncBatchNorm(128, eps=1e-05, momentum=0.1, affine=True, track_running_stats=True)
      )
      (1): Conv2d(
        128, 32, kernel_size=(3, 3), stride=(1, 1), padding=(1, 1), bias=False
        (norm): SyncBatchNorm(32, eps=1e-05, momentum=0.1, affine=True, track_running_stats=True)
      )
    )
    (offset_predictor): Conv2d(32, 2, kernel_size=(1, 1), stride=(1, 1))
    (center_loss): MSELoss()
    (offset_loss): L1Loss()
  )
)
[07/26 14:59:52] d2.projects.panoptic_deeplab.dataset_mapper INFO: Augmentations used in training: [ResizeShortestEdge(short_edge_length=..., max_size=4096, sample_style='choice'), RandomCrop(crop_type='absolute', crop_size=[512, 1024]), RandomFlip()]
[07/26 15:18:07] detectron2 INFO: Rank of current process: 0. World size: 8
…
